backend/pychatbot/data.pth (torch, 13866 bytes, 6 tensors)

l1.weight f4 [8, 195]
0.46684152 -0.13213296 1.3501602 2.5011544 1.0270457 2.0916936 1.9061908 0.6670515
0.63741213 1.5324153 0.07674713 0.5975142 -0.32300875 3.7012384 0.022976575 1.1472492
0.9371411 0.82087886 0.4866461 0.8640722 0.75939816 0.4713191 0.47814903 1.5311025
-1.7246418 -0.16459224 2.1777325 3.3767352 -0.36171854 0.6191237 -0.68517923 0.785987
0.3464793 0.39675003 2.0307052 0.6303911 0.63073707 -1.4480356 0.05292458 0.13291861
-0.5208283 1.4363157 2.0958514 0.79931754 3.0580027 0.63771904 1.7653279 1.4677299
0.9765908 0.5975734 -0.26180193 1.0692436 2.1987236 -0.08080765 0.4954536 2.145381
1.6509144 1.4990504 0.39250705 0.7115312 -0.25205308 0.63401395 1.3824949 1.09303
0.59995764 3.2190683 0.96014655 0.5211198 0.978299 0.7969086 1.512716 -0.13831447
0.54362845 3.5913658 0.5146512 -0.8093949 0.07767209 0.81939214 2.591431 2.5262756
2.6414773 2.1799164 2.1852765 1.6425847 2.1983848 1.248161 -0.33916342 -1.1123202
0.43225318 0.15519692 1.6548052 2.4185295 1.7181455 0.8774841 0.50439954 0.8790618
-0.108637415 -0.054018844 -0.35918498 -0.0019646257 -0.79916984 0.9527302 -0.40625402 0.8250701
-0.2532458 0.19544147 -0.4503861 1.968704 -1.7482169 1.5739607 0.7601072 0.4084386
1.2076583 -0.7274232 -0.3161569 1.3841813 0.819226 -0.36152148 1.989256 0.27103072
0.5347065 0.59604234 1.0734739 -0.39765677 0.93972313 0.78684074 -0.3034437 0.9210567
-0.22989053 0.7538408 1.1394405 0.8988555 0.95039874 0.41574913 -0.12422871 2.041801
1.418146 -0.70571196 2.016354 1.8589141 -0.13372386 0.9021534 1.657222 3.1293569
0.6829388 -0.2498643 1.2483264 0.034122735 0.9407345 -0.79380774 -1.2130268 0.55271035
1.6585302 0.33654842 -1.2145265 0.9951954 1.2337499 0.9752276 0.50226784 1.1447352
1.5847422 2.1738727 0.28955278 0.9766858 0.7922274 1.5350474 -1.2140583 0.22817424
1.4130849 0.74107915 0.8153725 0.6301476 0.6491603 0.6277504 -0.65931845 -0.45203444
1.251427 0.8032918 -0.35248062 0.80166394 2.591613 0.6927591 0.66215706 1.176297
0.8459442 1.9523817 0.8328871 0.6083386 0.15188688 1.1309053 1.1618202 -1.068104
1.2318664 2.136517 1.702276 0.6016938 0.5532687 0.10301582 1.4466568 1.0450232
-0.035205144 2.5999608 1.3143928 1.5896857 0.6890299 1.1646091 1.5046065 -0.21455248
2.9013958 0.47380292 0.8253405 0.064858764 -0.070839 -0.13806185 1.3373679 -1.0966862
0.6054265 0.8293673 -0.12077076 0.5158558 -0.032409992 0.311612 1.3755039 0.747866
1.6037498 0.21453087 0.61657685 1.0115372 0.5069956 1.3050033 1.6121675 1.5711366
-1.4295634 0.9159829 0.17888957 1.8827804 0.76046544 0.104690254 -1.1442009 1.5439032
0.93764216 1.0040382 0.65411985 -0.50256413 0.36475495 1.7606213 0.8791806 1.9128687
0.2654457 1.1941282 1.9059174 0.7577031 0.61901045 1.7759004 0.1602012 0.7076257
00000000: da05 ef3e dd4d 07be 0dd2 ac3f ea12 2040
00000010: 3c76 833f 4fde 0540 0ffe f33f e3c3 2a3f
00000020: 712d 233f 2f26 c43f 992d 9d3d b1f6 183f
00000030: 6761 a5be 17e1 6c40 5f39 bc3c 10d9 923f
00000040: 7be8 6f3f 1e25 523f ad29 f93e d633 5d3f
00000050: eb67 423f bd50 f13e f3cf f43e 2bfb c33f
00000060: 10c1 dcbf de8a 28be f85f 0b40 6e1c 5840
00000070: 2c33 b9be e47e 1e3f e867 2fbf 7236 493f
00000080: bc65 b13e d222 cb3e 13f7 0140 5061 213f
00000090: fc77 213f 3b59 b9bf 72c7 583d d11b 083e
000000a0: 0155 05bf 31d9 b73f 6e22 0640 13a0 4c3f
000000b0: 51b6 4340 8e41 233f 44f6 e13f 93de bb3f
000000c0: db01 7a3f 92fa 183f e70a 86be f9dc 883f
000000d0: e3b7 0c40 7b7e a5bd 18ac fd3e ec4d 0940
000000e0: 2a51 d33f e2e0 bf3f aff6 c83e e926 363f
000000f0: 1a0d 81be bd4e 223f 98f5 b03f 68e8 8b3f
00000100: d396 193f 3705 4e40 2acc 753f 1b68 053f
00000110: ce71 7a3f 3402 4c3f aea0 c13f 4fa2 0dbe
00000120: 3c2b 0b3f f0d8 6540 2ec0 033f 8134 4fbf
00000130: 8b12 9f3d afc3 513f 01da 2540 80ae 2140
00000140: f70d 2940 c083 0b40 92db 0b40 3740 d23f
00000150: 56b2 0c40 bdc3 9f3f d4a6 adbe 8260 8ebf
00000160: 4a50 dd3e f1eb 1e3e a8d0 d33f 30c9 1a40
00000170: 31ec db3f cca2 603f 5420 013f 320a 613f
00000180: 4b7d debd dd42 5dbd 18e7 b7be f3c0 00bb
00000190: 6596 4cbf 20e6 733f 8700 d0be cb37 533f
000001a0: 6fa9 81be cf21 483e 0299 e6be 7efe fb3f
000001b0: 92c5 dfbf 8b77 c93f 6396 423f dd1e d13e
000001c0: 8c94 9a3f 6838 3abf 51df a1be da2c b13f
000001d0: ccb8 513f 5819 b9be f19f fe3f 8ac4 8a3e
000001e0: 86e2 083f 3b96 183f 9867 893f ab99 cbbe
000001f0: b291 703f 656e 493f f95c 9bbe 5fca 6b3f
00000200: 6c68 6bbe b6fb 403f 30d9 913f 651b 663f
00000210: 554d 733f 12dd d43e 9f6b febd deac 0240
00000220: cf85 b53f 8aa9 34bf f20b 0140 e6f0 ed3f
00000230: e8ee 08be 86f3 663f da1f d43f 6247 4840
00000240: 14d5 2e3f 6ddc 7fbe 29c9 9f3f 48c4 0b3d
00000250: fad3 703f fc36 4bbf 7644 9bbf 6d7e 0d3f
00000260: b84a d43f 1350 ac3e 9b75 9bbf 20c5 7e3f
00000270: 84eb 9d3f 84a8 793f a094 003f af86 923f
00000280: d5d8 ca3f bb20 0b40 4340 943e 1508 7a3f
00000290: 6acf 4a3f 6f7c c43f 4366 9bbf 82a6 693e
000002a0: f7df b43f 5db7 3d3f 41bc 503f 5a51 213f
000002b0: 5f2f 263f 40b4 203f 18c9 28bf 0f71 e7be
000002c0: c32e a03f 88a4 4d3f 5778 b4be d939 4d3f
000002d0: fddc 2540 a958 313f 2083 293f e690 963f
000002e0: cd8f 583f a5e7 f93f 1738 553f 14bc 1b3f
000002f0: 3c88 1b3e 81c1 903f 86b6 943f a2b7 88bf
00000300: ccad 9d3f b2bc 0840 2ee4 d93f 9b08 1a3f
00000310: 04a3 0d3f f5f9 d23d 0d2c b93f 52c3 853f
00000320: 4533 10bd c265 2640 063e a83f d27a cb3f
00000330: 4364 303f e911 953f f296 c03f a5b3 5bbe
00000340: 78b0 3940 4c96 f23e 8449 533f acd4 843d
00000350: 0a14 91bd 1660 0dbe df2e ab3f 3760 8cbf
00000360: 3bfd 1a3f 6a51 543f a956 f7bd 200f 043f
00000370: 57c0 04bd 9c8b 9f3e 8310 b03f 2574 3f3f
00000380: ac47 cd3f fbad 5b3e fbd7 1d3f 0d7a 813f
00000390: 77ca 013f 590a a73f 815b ce3f 011b c93f
000003a0: effb b6bf db7d 6a3f d42e 373e f3fe f03f
000003b0: ddad 423f d867 d63d 2d75 92bf 9f9e c53f
000003c0: 5109 703f 5384 803f 6674 273f 0ba8 00bf
000003d0: 29c1 ba3e 0a5c e13f fb11 613f e2d8 f43f
000003e0: 80e8 873e 31d9 983f 1af5 f33f d5f8 413f
000003f0: 7877 1e3f b450 e33f c90b 243e f526 353f

l1.bias f4 [8]
2.5376124 2.2160363 2.7353702 1.4154346 1.9089806 1.2129904 0.6757907 1.3895007
00000000: 3e68 2240 8ad3 0d40 4e10 2f40 f62c b53f
00000010: 7a59 f43f 4543 9b3f 9f00 2d3f 29db b13f

l2.weight f4 [8, 8]
0.75216013 1.4543889 0.9825909 -0.10173353 1.8473539 2.972442 0.10748149 -1.3874246
1.703536 1.1939857 1.0751253 0.32496995 0.6185399 -0.26605552 -1.0992026 3.1076982
3.1092792 2.1284826 1.3271106 -0.33233953 -2.3406253 1.3357115 0.9102807 0.31444675
-0.9277719 1.5727681 2.065779 1.5906581 -1.0887829 2.2195926 0.6701299 -0.84578264
1.4702641 2.813726 1.6264943 -0.47932726 2.7986708 -1.0945003 3.3798184 1.4835731
0.32579407 1.6369314 2.186377 1.6187466 1.6693087 -0.4459838 -2.7106938 -0.059535135
-0.40303916 -1.5251797 2.0891562 2.9163554 -0.59072447 0.53362614 0.76914763 1.9570885
3.96983 -0.4224643 0.41374648 3.1071959 3.3455005 2.0903366 0.4310632 -0.041998018
00000000: 918d 403f 6a29 ba3f 148b 7b3f ab59 d0bd
00000010: 1876 ec3f 7d3c 3e40 411f dc3d 2197 b1bf
00000020: 780d da3f 86d4 983f b59d 893f 7662 a63e
00000030: a258 1e3f 6e38 88be acb2 8cbf 87e4 4640
00000040: 6efe 4640 0f39 0840 c3de a93f 6828 aabe
00000050: cecc 15c0 98f8 aa3f 2808 693f 2aff a03e
00000060: 7682 6dbf 7750 c93f b935 0440 af9a cb3f
00000070: 3d5d 8bbf ce0d 0e40 a28d 2b3f 3685 58bf
00000080: 9d31 bc3f 1614 3440 f730 d03f 626a f5be
00000090: 6c1d 3340 9618 8cbf f24e 5840 b9e5 bd3f
000000a0: 7bce a63e f886 d13f 9aed 0b40 1733 cf3f
000000b0: e8ab d53f fd57 e4be 027c 2dc0 1ddb 73bd
000000c0: 265b cebe 1739 c3bf bcb4 0540 91a5 3a40
000000d0: b839 17bf b99b 083f dce6 443f e081 fa3f
000000e0: b211 7e40 3e4d d8be 94d6 d33e 4cdc 4640
000000f0: ae1c 5640 13c8 0540 51b4 dc3e 1d06 2cbd

l2.bias f4 [8]
1.083549 1.4694508 1.1128861 -0.28810668 0.24696134 1.5006049 0.4860892 0.9152945
00000000: bcb1 8a3f f716 bc3f 0d73 8e3f b882 93be
00000010: 6fe3 7c3e d213 c03f afe0 f83e be50 6a3f

l3.weight f4 [44, 8]
-0.84147096 -0.41992825 -1.2605056 -0.4520175 -0.5294767 -0.1799636 0.0050604744 -0.2006456
0.5850095 -2.6359313 -0.59157634 -0.2218554 0.37672484 -2.0031247 -1.4760739 0.3035258
-2.2034078 0.36764324 -0.012689087 -0.4291065 -0.96440357 0.026093176 0.08159629 -0.57653344
0.51156384 -0.4401407 -2.6739311 -2.5596251 0.6027023 0.25889006 -2.3870935 0.16713648
-1.0726451 -0.3308115 -1.0115622 -0.041547928 -0.335838 1.1302726 -0.2601854 -1.4542106
-0.88695323 0.21918179 0.8850132 -0.75133085 0.4753981 -1.7353165 -1.5063168 -1.3679221
-0.42035818 -1.8010032 0.35233456 -0.16473407 -0.15224284 -2.9101546 -0.40335795 0.4568948
-1.3913665 -0.7385228 -0.67465144 0.1930084 -0.0085919555 -0.6869817 0.7925711 -0.9680987
-0.26816395 -0.9991737 -0.3009952 0.25759804 -0.9440842 -1.1716352 0.36359528 -0.3539548
0.040236387 -1.341387 0.22703534 0.6201182 -0.33494672 -1.0781916 -0.034936626 -1.3500243
-0.54884225 -0.29072073 -0.09910714 -0.4903694 -0.11021035 -0.42330226 -0.42772195 -1.0774256
0.837042 -2.0281203 0.12029593 -0.005963595 -1.5332997 -1.8010898 -1.5699205 0.76571405
-2.6834726 0.8839914 0.07333837 -0.5346826 -0.08208461 0.7647284 0.29153883 -2.396893
-0.36011124 0.51265043 -2.328367 -2.4066982 0.0028020884 -1.5147738 -0.23458311 0.5535391
-0.008019645 0.11066184 0.626861 -0.2840732 -0.65587026 -0.7276456 -3.0200388 -0.69998443
0.47113818 -3.3322659 -0.018815514 0.49521637 -0.5475827 -0.73508155 -0.13234118 -0.30087933
-0.16533248 0.9243939 -0.65122396 -3.388229 0.39221635 0.7282175 -1.2856985 -1.5218436
-0.36953935 0.2927594 0.57458836 -4.2021317 -1.5110316 -0.1853053 0.057454083 0.22522165
-0.8606207 -0.13637748 0.025668275 -1.2437212 0.12782556 -2.2151113 -0.0630649 -0.21211997
0.63558364 -0.4017739 -1.4435823 -1.0247413 -0.755052 -0.5795257 -1.7506186 0.32457337
0.6334122 -0.80906075 0.038345717 0.6676641 -1.271863 0.4957243 -1.2303789 -1.5616426
0.32209364 -1.8664484 -0.14011157 0.31669474 -2.3147726 -1.4143761 0.56703156 0.34539425
-0.24327558 0.31080717 0.4911247 0.05633753 -0.011197196 0.33259577 -1.0676727 -3.039182
-0.9320043 -0.5897141 -0.9906503 0.34904325 -2.1709743 0.28411242 0.72803664 -0.12277956
0.15860823 -0.94666433 -0.431207 -0.06915636 -2.381265 0.62925094 -0.44157225 -0.032024834
-0.06472184 -0.8538084 -0.1590015 -0.8646669 0.45590183 -0.9519901 -1.9408112 -0.43652248
-0.26181075 -0.0047101406 -0.35138452 0.396963 -1.3500632 0.026151927 0.3507609 -1.401401
-0.22057626 0.015011643 0.7520474 -1.7521851 0.11630556 -2.5882556 -2.5110493 0.072144926
-3.277948 0.6696141 -0.56920284 -2.6447499 0.4008281 -0.45020095 -0.1163368 -0.0049744053
-0.73831916 -1.4911153 0.5210442 -0.0014717528 -0.6471292 -0.5412513 -0.9553654 -0.20017408
-0.0275718 -0.6303242 -1.5680317 -0.084860526 0.34038025 -2.306276 0.30763486 -0.35344946
0.5675721 -1.3016459 0.3280438 0.44716462 0.35836172 -2.2063541 -1.8354267 -0.9489456
00000000: a46a 57bf d600 d7be 3f58 a1bf d66e e7be
00000010: c98b 07bf 6148 38be 56d2 a53b 0a76 4dbe
00000020: 2fc3 153f 19b3 28c0 8c71 17bf 102e 63be
00000030: 14e2 c03e 3233 00c0 fdef bcbf bc67 9b3e
00000040: a204 0dc0 bc3b bc3e e3e5 4fbc d9b3 dbbe
00000050: 27e3 76bf 5bc1 d53c f51b a73d b297 13bf
00000060: d9f5 023f 1f5a e1be b021 2bc0 e6d0 23c0
00000070: b34a 1a3f 3d8d 843e 24c6 18c0 d325 2b3e
00000080: 6f4c 89bf 2060 a9be df7a 81bf 292e 2abd
00000090: f5f2 abbe c6ac 903f 0537 85be 9323 babf
000000a0: 5e0f 63bf 3171 603e 3a90 623f 3857 40bf
000000b0: 6167 f33e da1e debf fdce c0bf 1218 afbf
000000c0: 3039 d7be 4687 e6bf 3265 b43e 0cb0 28be
000000d0: 8ce5 1bbe f93f 3ac0 ef84 cebe 1dee e93e
000000e0: 4c18 b2bf d50f 3dbf f5b5 2cbf fea3 453e
000000f0: 46c5 0cbc 08de 2fbf f1e5 4a3f 51d5 77bf
00000100: c94c 89be d9c9 7fbf 0b1c 9abe e4e3 833e
00000110: 81af 71bf 24f8 95bf 2929 ba3e 9039 b5be
00000120: e9ce 243d 92b2 abbf f47b 683e 11c0 1e3f
00000130: 237e abbe 2f02 8abf b519 0fbd 99cd acbf
00000140: ed80 0cbf 59d9 94be aff8 cabd b311 fbbe
00000150: f7b5 e1bd 13bb d8be 5ffe dabe 15e9 89bf
00000160: 6248 563f b9cc 01c0 b65d f63d 436a c3bb
00000170: 2a43 c4bf 1c8a e6bf 28f3 c8bf d605 443f
00000180: 04be 2bc0 434d 623f 6d32 963d f5e0 08bf
00000190: fa1b a8bd 3ec5 433f 9444 953e b266 19c0
000001a0: 8060 b8be 0f3d 033f f703 15c0 5807 1ac0
000001b0: 3ea3 373b 1ce4 c1bf 8e36 70be bdb4 0d3f
000001c0: d464 03bc ada2 e23d f679 203f 0b72 91be
000001d0: 1de7 27bf fb46 3abf 5148 41c0 2e32 33bf
000001e0: 0639 f13e d843 55c0 fe22 9abc 008d fd3e
000001f0: 612e 0cbf 4e2e 3cbf 7284 07be db0c 9abe
00000200: eb4c 29be 14a5 6c3f 9db6 26bf bed8 58c0
00000210: 95d0 c83e 766c 3a3f c591 a4bf c5cb c2bf
00000220: 4334 bdbe 8fe4 953e 3918 133f dd77 86c0
00000230: 7c69 c1bf acc0 3dbe f954 6b3d 81a0 663e
00000240: a351 5cbf 8aa6 0bbe 4646 d23c 4232 9fbf
00000250: b4e4 023e 62c4 0dc0 2c28 81bd fa35 59be
00000260: 9cb5 223f 4fb5 cdbe 4ec7 b8bf b92a 83bf
00000270: 164b 41bf cc5b 14bf 4514 e0bf 7b2e a63e
00000280: 4d27 223f 9b1e 4fbf 6610 1d3d 09ec 2a3f
00000290: 68cc a2bf 93cf fd3e 0e7d 9dbf e8e3 c7bf
000002a0: 75e9 a43e c8e7 eebf 6879 0fbe d025 a23e
000002b0: 3c25 14c0 470a b5bf fb28 113f 84d7 b03e
000002c0: 3c1d 79be 1e22 9f3e b274 fb3e 2fc2 663d
000002d0: 7274 37bc fe49 aa3e 80a9 88bf f581 42c0
000002e0: d597 6ebf 81f7 16bf 429b 7dbf ccb5 b23e
000002f0: 3ef1 0ac0 2f77 913e 9c60 3a3f da73 fbbd
00000300: 326a 223e 9858 72bf 2ac7 dcbe daa1 8dbd
00000310: a566 18c0 9716 213f c215 e2be 792c 03bd
00000320: e28c 84bd 3093 5abf 4ad1 22be cf5a 5dbf
00000330: f76b e93e a0b5 73bf 806c f8bf e07f dfbe
00000340: 0f0c 86be 8657 9abb ace8 b3be bc3e cb3e
00000350: dfce acbf 913c d63c ef96 b33e 1c61 b3bf
00000360: bede 61be 65f3 753c 2e86 403f 9a47 e0bf
00000370: 9c31 ee3d fba5 25c0 08b5 20c0 b8c0 933d
00000380: e6c9 51c0 d46b 2b3f 47b7 11bf 9543 29c0
00000390: 5739 cd3e bd80 e6be fd41 eebd 5600 a3bb
000003a0: 7c02 3dbf dedc bebf 2763 053f d4e7 c0ba
000003b0: 42aa 25bf 728f 0abf d492 74bf 6ffa 4cbe
000003c0: 41de e1bc ed5c 21bf 43b5 c8bf 5bcb adbd
000003d0: 5246 ae3e 079a 13c0 5182 9d3e 54f7 b4be
000003e0: 684c 113f 559c a6bf 5bf5 a73e c3f2 e43e
000003f0: 307b b73e e834 0dc0 43ef eabf 19ee 72bf

l3.bias f4 [44]
-0.72342443 -0.032954898 -0.39656818 -0.06103758 -0.09467239 -0.55942935 -0.26504076 -0.413396
-0.3245741 -0.6943871 -0.2907877 0.111578 0.17993799 0.01463953 0.07215632 -0.5427727
0.6505748 0.81234074 0.22161438 0.28160498 -0.09840835 -0.03614496 -0.19057195 -0.39614287
-0.34976545 -0.32535127 -0.512063 0.035720203 -0.4369174 -0.6780071 0.29273757 0.27417696
-0.3283189 0.35182887 0.16971356 -0.3266965 -0.766183 -0.3299894 0.10726407 -0.44345713
-0.40490878 0.008470356 0.4076341 0.4736405
00000000: 5832 39bf b7fb 06bd fc0a cbbe 8b02 7abd
00000010: 99e3 c1bd c336 0fbf 6cb3 87be a4a8 d3be
00000020: 942e a6be 5ac3 31bf 20e2 94be 0283 e43d
00000030: aa41 383e a4da 6f3c b1c6 933d 27f3 0abf
00000040: 128c 263f 90f5 4f3f e1ee 623e 872e 903e
00000050: 518a c9bd bd0c 14bd 4b25 43be 3dd3 cabe
00000060: 7514 b3be 7194 a6be 9016 03bf 594f 123d
00000070: a3b3 dfbe e091 2dbf b3e1 953e ec60 8c3e
00000080: 6a19 a8be ea22 b43e 64c9 2d3e c344 a7be
00000090: 9224 44bf 5ff4 a8be 44ad db3d d00c e3be
000000a0: 3450 cfbe 40c7 0a3c 6bb5 d03e 0281 f23e
